Model: "functional_1"
_________________________________________________________________
Layer (type)                 Output Shape              Param #   
=================================================================
input_1 (InputLayer)         [(None, 15)]              0         
_________________________________________________________________
dense_variational (DenseVari (None, 196)               9408      
_________________________________________________________________
batch_normalization (BatchNo (None, 196)               784       
_________________________________________________________________
dense_variational_1 (DenseVa (None, 196)               115836    
_________________________________________________________________
batch_normalization_1 (Batch (None, 196)               784       
_________________________________________________________________
dense_variational_2 (DenseVa (None, 196)               115836    
_________________________________________________________________
batch_normalization_2 (Batch (None, 196)               784       
_________________________________________________________________
dense (Dense)                (None, 21)                4137      
_________________________________________________________________
mixture_normal (MixtureNorma ((None, 1), (None, 1))    0         
=================================================================
Total params: 247,569
Trainable params: 246,393
Non-trainable params: 1,176
_________________________________________________________________
Output dir: /home/raquel/Documents/qucats_paper/results/bmdn/final_model_dr4_BNWG_linux_700e/
…
